experiments/vit-with-10-epochs/model_final.pt (torch, 496668 bytes, 54 tensors)

embedding.cls_token f4 [1, 1, 48]
000000 b0 d4 86 bd 0c 71 ec 3d 38 35 7a bd 4c 09 87 3e
       -0.06583536 0.115449995 -0.06108591 0.2637428
000010 05 72 20 be 5d d2 4a bd 1d de 14 3c d8 d8 2f bf
       -0.15668495 -0.049517024 0.009086159 -0.6869025
000020 2e 3c ea 3d ab 58 7e be e0 28 d0 3d 43 a2 ab be
       0.114372596 -0.24838512 0.10164046 -0.33522233
000030 36 01 ae 3d 42 08 1a 3e 70 b3 ac bc 91 53 68 bd
       0.08496325 0.15042213 -0.021081656 -0.05672032
000040 bb 24 07 bf 7b 2a 52 be 2d 16 04 3e ff 68 35 bd
       -0.5279042 -0.20524018 0.12899084 -0.044289585
000050 14 d8 77 bd f7 89 11 bd c3 55 08 bf ed ce f5 3c
       -0.060508803 -0.035531964 -0.5325586 0.030005896
000060 bb 97 8c 3e 75 78 c3 3d 30 9e b0 bc b8 ab 87 bd
       0.2745951 0.0954446 -0.021559805 -0.066245496
000070 48 da 2f 3e 85 15 63 3e 7b 15 26 3f 6c f2 2a 3e
       0.17173111 0.22176178 0.64876527 0.16694039
000080 cd dd a4 3e 9a 27 64 3f bc 4d a7 3d c0 d8 6e bd
       0.3220047 0.8912293 0.081691235 -0.058312178
000090 4a 30 46 bf b8 b2 6b be ac 62 8d 3d 3c e1 02 bd
       -0.77417433 -0.23017395 0.06903586 -0.03195308
0000a0 2a c4 08 3e 88 2d 18 be 27 c2 e8 3d a7 57 ec bd
       0.1335608 -0.14861119 0.113651566 -0.11540156
0000b0 6e dd c6 3d e2 49 b3 3d 64 3c 00 be 56 dd a2 3e
       0.09710203 0.087543264 -0.12523037 0.3180949

embedding.position_embeddings f4 [1, 65, 48]
000000 62 21 96 bd d9 6f ce 3d 16 6b 36 bd 92 6b 83 3e
       -0.07330586 0.10079927 -0.04453572 0.25668007
000010 d8 dd 11 be 72 9d 8a bc 6a d1 18 3d 89 44 2d bf
       -0.14244783 -0.016920779 0.037309088 -0.676827
000020 ec cf 05 3e 05 b4 77 be 7e 31 e8 3d 9c 3b b4 be
       0.13067597 -0.24189766 0.11337565 -0.35201728
000030 31 46 91 3d 4e f7 30 3e 70 1d 2e bd 90 45 2f bd
       0.07093466 0.17281839 -0.042508543 -0.04279095
000040 fa 56 05 bf 6f 63 5a be a3 3c 05 3e 36 e5 23 bc
       -0.5208584 -0.21326993 0.13011412 -0.010003379
000050 31 03 6f bd b8 5e 09 bd 80 ca 08 bf c6 76 6e 3b
       -0.058352653 -0.033537596 -0.5343399 0.0036386712
000060 a8 54 82 3e 74 66 fe 3d 58 89 98 bc 86 bd b9 bd
       0.25455213 0.12421885 -0.018620178 -0.09069352
000070 de 1d 1f 3e 00 b1 83 3e 58 5a 21 3f 95 05 02 3e
       0.15538737 0.25720978 0.6302848 0.12697442
000080 aa 0d ac 3e 25 21 63 3f ab 6a ee 3d 4f 39 93 bd
       0.33604175 0.8872245 0.11641439 -0.07188665
000090 54 a3 3d bf b7 fb 4c be 57 3f d3 3d 25 06 01 3b
       -0.74077344 -0.20017897 0.103148155 0.00196875
0000a0 6e 2e f2 3d 0b 30 10 be 5b d7 19 3e 92 21 12 be
       0.11825262 -0.14080827 0.15023558 -0.14270619
0000b0 15 c4 e3 3d 0c 0c 31 3d 60 ea e6 bd c8 a3 a5 3e
       0.11121384 0.04322438 -0.11275172 0.32351518
0000c0 14 e3 1b bf 84 94 f9 bd 8f 51 38 bf a9 cc f7 be
       -0.6089337 -0.1218653 -0.7199945 -0.4839833
0000d0 c3 d2 53 3f df bb 65 40 7c 7d f9 bf 6d 86 7c 3e
       0.8274347 3.5895917 -1.949142 0.24660654
0000e0 d1 40 4d bf 29 a5 42 bd 85 b0 6e 3f ea a5 86 bf
       -0.80177027 -0.04752079 0.932381 -1.0519383
0000f0 f2 99 c6 3e 7b 0f 9f bf eb 6a c8 be 39 0b fd be
       0.38789326 -1.2426599 -0.39144072 -0.49422625
000100 8f eb 99 bf 15 ea 79 bf d0 cc 96 3f 59 1a 1a bf
       -1.2025012 -0.97622806 1.1781254 -0.60196453
000110 58 c6 24 3f 78 cf d5 bd f5 af 86 3d cd 58 b1 3d
       0.6436515 -0.10439962 0.0657653 0.086595155
000120 e4 1c 82 3d 41 1e 60 bd d4 22 51 bf 42 bc 5b be
       0.06353167 -0.054716352 -0.8169377 -0.21458533
000130 5a e5 16 be c8 df 03 3f aa fd 0b 3f fe 83 a5 3e
       -0.14735928 0.5151334 0.54683936 0.32327265
000140 20 0d 9b 3b 10 58 cd bd 79 55 25 be 37 36 b2 3e
       0.004731789 -0.10026562 -0.16145886 0.34806988
000150 90 8a 0f bf 98 83 a7 3e f7 d1 67 3f 52 6b 55 3f
       -0.56070805 0.32717586 0.90554756 0.8336688
000160 e3 02 2f be bd 16 1d bf 61 d0 96 bf 48 50 48 3f
       -0.17090945 -0.6136282 -1.1782342 0.782475
000170 71 5d 83 be e6 61 03 3e 58 8f 88 3f b3 b4 d6 bd
       -0.25657228 0.12830314 1.0668745 -0.104836844
000180 63 7e 73 be 21 e8 59 bf f8 b1 49 bf 13 c9 d1 be
       -0.23778681 -0.85119826 -0.78787184 -0.4097372
000190 9a 30 15 3f f1 9d 28 40 68 ee f9 bf a0 bc 13 3e
       0.58277285 2.63464 -1.9525881 0.14427423
0001a0 80 e8 86 be d8 74 28 3f 60 d8 1a 3d 45 18 e4 be
       -0.26349258 0.6580329 0.037804008 -0.44549766
0001b0 ba 07 85 bd 50 78 6f bf 89 1a 1b bf 6f 83 9d 3c
       -0.06495614 -0.9354296 -0.60587364 0.019227711
0001c0 59 3a b4 bf 41 6c 31 bf 60 90 4b 3f 4a b2 87 be
       -1.4080306 -0.6930581 0.79517174 -0.2650321
0001d0 db a1 a4 3f 50 6f e5 be aa 4d 1b bf f9 81 5c bc
       1.2861894 -0.44811487 -0.6066538 -0.013458722
0001e0 ed 75 4d 3e 72 a2 46 be 73 58 74 be a2 ee a0 3e
       0.20064516 -0.19397905 -0.23861866 0.31432062
0001f0 58 d6 26 bf 8b 72 e9 be a4 1f 67 3f 07 34 9e 3f
       -0.6517081 -0.45595202 0.90282655 1.2359627
000200 c0 42 1f bd 9d c6 f3 be 06 6e 22 bf 86 c2 86 3e
       -0.038882017 -0.47612467 -0.6344913 0.26320285
000210 9a 32 b7 bf 71 89 a0 3f 28 db a4 3f 6f d0 64 3f
       -1.4312317 1.2541944 1.2879381 0.89380544
000220 cc 60 17 bf 1c 1a ae 3d 36 73 21 be f3 7b 82 bf
       -0.59132075 0.08501074 -0.15766606 -1.0194076
000230 57 6e 7e be fd 3b 29 3f 4c 88 9b 3f 6d a6 4d bf
       -0.24846779 0.6610716 1.215097 -0.8033207
000240 82 0d 1f bf 08 c9 4e bf f4 e6 81 3e 80 cb 93 bf
       -0.62129986 -0.807755 0.25371516 -1.1546478
000250 18 ba b7 3e 27 c5 3a 40 66 90 18 c0 fb ea 8c 3f
       0.35884166 2.9182832 -2.3838134 1.100921
000260 b4 91 d3 3e 1b 55 25 3f 91 3f 31 3e 69 ee 4c bf
       0.413221 0.64582986 0.17309405 -0.80051285
000270 8b 40 be 3e f4 a4 29 3d 97 9c f5 bf c3 f6 d3 bd
       0.37158617 0.041417077 -1.9188412 -0.103498004
000280 78 9b 5c bf 38 c3 2a bf ce 34 81 3f 9d c7 08 bf
       -0.86174726 -0.6670413 1.009424 -0.53429586
000290 53 6a 62 3f 59 e0 96 3e 74 2c c7 3e 67 b4 cd be
       0.8844349 0.2946804 0.38901103 -0.401767
0002a0 52 ac 72 be 80 2b 1f bc bd 10 54 bf 08 9f fa bb
       -0.23698547 -0.009714961 -0.8283804 -0.0076483525
0002b0 a7 9a b6 be 09 48 85 be d5 3f 83 3f 06 8e 03 3f
       -0.35664865 -0.2603152 1.0253855 0.51388586
0002c0 48 11 c3 3e 1f ce 20 bf 74 38 2a bf b3 ca 33 3f
       0.38099122 -0.62814516 -0.6649239 0.7023117
0002d0 cf 33 d8 be 7e a2 78 3f 4a 08 88 3f 08 12 b5 3f
       -0.42227027 0.97122943 1.062753 1.4146128
0002e0 7d d0 45 bc 22 fb 5d be e5 89 32 bf e8 3e 76 be
       -0.012073633 -0.21677831 -0.6974166 -0.24047434
0002f0 55 5c 10 bf 0f 8f 3f 3e 07 b6 0c 3f 5f 02 dc be
       -0.5639089 0.18706916 0.5496525 -0.4297056
000300 d0 16 d6 bd 6b f2 d4 be b3 04 76 3e 33 60 0b bf
       -0.1045357 -0.415912 0.2402523 -0.54443663
000310 df 99 1d 3e 6c 8e 13 40 ef 38 d5 bf 41 ad 49 3e
       0.15390728 2.3055677 -1.6658 0.19694997
000320 f8 2c 36 3f b5 43 f9 3d a7 ca bb bc 6e 58 b9 be
       0.71162367 0.12171117 -0.02292378 -0.3620028
000330 27 78 06 3f e1 78 20 3f 23 7e 03 c0 40 fd 69 bd
       0.5252709 0.62684447 -2.0545738 -0.057126284
000340 36 b9 1d bf 6e 8a 0d bf 7b 9b 3b 3f 36 46 8b be
       -0.61610734 -0.5528935 0.7328412 -0.27202004
000350 1b 8d 34 3f 91 33 a6 be 9a 10 5d be c8 25 b0 be
       0.7052781 -0.32461217 -0.21588364 -0.34403825
000360 17 b0 ac 3d e4 3d 3c 3d fb f0 45 be 15 6c 06 3e
       0.08432024 0.04595746 -0.19330208 0.13127168
000370 bd f3 03 3d 9b 36 aa bd 76 81 90 3f 9f b8 1c 3e
       0.03221487 -0.083111964 1.1289508 0.15304802
000380 7e 58 a3 3e 55 4d 25 bf 7e 86 a1 be 3d 9e d3 3e
       0.31903452 -0.64571124 -0.31547922 0.41331664
000390 7e 4b cb be 5f 85 57 3e 78 60 b7 3f ef 5c 79 3f
       -0.39706033 0.21046971 1.4326315 0.9740743
0003a0 4d ed e6 3c 71 c0 04 3e 42 ee 51 bf 38 2b cc 3e
       0.028189326 0.12964036 -0.8200418 0.39876723
0003b0 7b 8e 80 be 9d 51 8d 3d b7 2f 00 3f c7 84 b5 be
       -0.25108704 0.06900332 0.5007281 -0.35452864
0003c0 80 a6 ed be 49 1e ce be 6e 72 13 be 5b 6d 4d be
       -0.46416092 -0.4025748 -0.1439912 -0.20061247
0003d0 17 3b ee 3d c1 6c 03 40 e4 1d d2 bf c4 71 36 3e
       0.11632364 2.0535128 -1.6415372 0.17816836
0003e0 b9 49 7e 3e a3 9d 90 3d ac 24 91 3e 96 46 29 bf
       0.2483281 0.07061317 0.2834829 -0.6612333
0003f0 3a df 5f 3f 66 83 bc 3e 31 11 f3 bf 03 70 10 3e
       0.8744999 0.36819 -1.8989621 0.14105229

embedding.patch_embeddings.projection.weight f4 [48, 3, 4, 4]
000000 c3 ee d1 bc 9c cf 9a b9 ed 53 e5 bd e5 1c 07 be
       -0.025626546 -0.0002952785 -0.11197648 -0.13194616
000010 6a 77 ac 3e 86 50 0d 3f 48 79 9f 3e 27 aa b2 3d
       0.33684856 0.55200994 0.31147218 0.0872386
000020 3d ea cd 3e ff 3e 1d 3f 5d b1 92 3e 30 5a c7 3d
       0.40217772 0.6142425 0.28650942 0.09733999
000030 05 12 91 3b a2 63 8f 3d 3d ac 30 be 80 33 47 be
       0.004427197 0.07001425 -0.17253204 -0.1945324
000040 d2 09 f6 3c b1 1f 6e 3d 7b 1c 04 be 01 59 08 be
       0.03003398 0.058135692 -0.1290149 -0.13315202
000050 7c 37 ae 3e f7 85 d9 3e b8 47 0b 3e 90 15 84 ba
       0.34026706 0.4248502 0.13601577 -0.0010077227
000060 72 38 ad 3e ce c1 d0 3e ec f9 04 3e 76 85 58 3c
       0.33832127 0.4077286 0.12985963 0.013215413
000070 a0 d4 46 3c ed 53 40 bc 0c ed 8f be 89 3c 3e be
       0.012135655 -0.011738759 -0.2811054 -0.1857778
000080 9c 7c d5 be e5 06 cb be 98 54 f7 be 08 06 ef be
       -0.41696632 -0.39653698 -0.48306727 -0.4668429
000090 f3 97 06 be ef 89 63 bc 10 7e 3c be ab 84 5b be
       -0.13143902 -0.013887866 -0.18407464 -0.21437328
0000a0 1e ce 51 bc 11 c2 93 3d 6f dd 83 bd fe 7b 2f be
       -0.01280549 0.072147496 -0.064387195 -0.17137143
0000b0 77 28 3a be 39 e8 2a be b2 55 9b be d3 d9 72 be
       -0.18179499 -0.16690148 -0.30338818 -0.23715906
0000c0 13 f5 65 3d 6c 60 01 3e 41 4c 26 bc b9 cb 55 bc
       0.056141924 0.12634438 -0.010150016 -0.01304906
0000d0 d1 71 82 bb 0e d3 a5 3d 3c 46 1f bc d1 d6 59 bc
       -0.003980853 0.08096896 -0.009721335 -0.013295845
0000e0 95 d2 5b be 51 85 fd bd a5 20 11 bd b0 45 23 3c
       -0.2146705 -0.12378944 -0.035431523 0.009965345
0000f0 1c f0 d3 be b5 b1 89 be e6 96 1f be dd b4 3f bd
       -0.41394126 -0.26893392 -0.15584907 -0.046803344
000100 e4 60 fd bd 55 31 bc bc 27 aa 9e bd 13 96 22 bd
       -0.12371996 -0.022972742 -0.07747298 -0.039693903
000110 61 63 e4 bd c3 c1 ae ba 1c 4c 0d 3d c4 f4 e9 3d
       -0.111517675 -0.0013332892 0.03449641 0.114236385
000120 21 62 99 be 20 58 dc bd ec 91 12 3d 0f 3b 3d 3e
       -0.2995768 -0.10758996 0.035783693 0.1847956
000130 77 0f d5 be cb 00 8e be 64 2f 2b bd 8f 15 b7 3d
       -0.4161336 -0.2773498 -0.041793242 0.08939659
000140 ef 62 0d be 77 b1 0c bd c7 37 88 39 8b cf 14 3e
       -0.13807271 -0.03434893 0.000259815 0.14532296
000150 1a 30 12 be 83 9a 79 3d bd 68 31 3e 50 aa 91 3e
       -0.14276162 0.06093837 0.1732511 0.2845025
000160 6e 0b 3d be 5d 91 08 ba cd e0 72 3e c6 38 d3 3e
       -0.18461391 -0.0005209649 0.23718567 0.41254252
000170 ed 1d 97 be bc af fa bd 75 f7 e3 3d df 3f 74 3e
       -0.2951502 -0.1224055 0.11131183 0.2385249
000180 f8 94 39 3e 84 e8 40 bd 48 e5 b1 bc 90 8c 60 bd
       0.18123233 -0.047096744 -0.021715775 -0.05482155
000190 cc 66 ae 3e f4 bc 70 3e db e2 77 3e ee d1 73 3d
       0.34062803 0.2350958 0.24207632 0.059526376
0001a0 29 06 d9 3e 5a 9c b0 3e 78 a5 d4 3e b1 78 0c 3e
       0.42387512 0.34494287 0.41532493 0.13717915
0001b0 0c d5 19 bd fa a4 72 be 00 55 56 be 9a 05 a2 be
       -0.037556693 -0.23695746 -0.20930862 -0.316449
0001c0 cf 87 d0 be cd 36 05 bf ef 44 c2 be 79 4f dc be
       -0.40728614 -0.52036744 -0.37943217 -0.43029383
0001d0 5b c7 c4 be e9 37 b8 be d8 4d 2b be fb 6b a8 be
       -0.38433346 -0.35980156 -0.16728914 -0.32894883
0001e0 ee 4e b8 be 04 c9 b7 be 24 17 12 be 77 2f a5 be
       -0.3599772 -0.3589555 -0.1426664 -0.32262775
0001f0 e0 a8 26 bf 8d c7 4c bf 7a 24 3c bf 30 a8 4b bf
       -0.6510143 -0.7999199 -0.7349316 -0.7955351
000200 fe fa ce 3e 24 86 1d 3e 96 f1 d3 3d 18 a1 73 bd
       0.40425867 0.15383202 0.10348813 -0.059479803
000210 d8 45 10 3f 55 a9 d1 3e f2 77 c4 3e ba b0 28 3d
       0.56356573 0.40949503 0.3837276 0.041184165
000220 4a c9 18 3f bd a0 11 3f 2f 98 15 3f ec f5 59 3e
       0.5968214 0.5688589 0.5843534 0.21285218
000230 ca f3 ae 3e 33 cc 74 3e b9 68 47 3e bb e0 b4 bc
       0.3417037 0.23906021 0.19473542 -0.022079816
000240 e2 23 6e bd 80 e4 c2 be 17 44 c9 be 24 2d c6 be
       -0.05813969 -0.38064957 -0.3930976 -0.38706315
000250 c1 b3 67 bd 2e a2 44 be c1 ec 19 be 09 b0 36 be
       -0.05656791 -0.19202492 -0.1503172 -0.1784059
000260 9c 42 ce be dc 3d 9f be cc 01 4f be fc 21 53 be
       -0.40285194 -0.31101882 -0.20215529 -0.20618433
000270 6c bf 26 bf 8f 4f 1d bf 24 20 c0 be 96 57 d4 be
       -0.65135837 -0.6144952 -0.3752452 -0.41473073
000280 ba 58 13 3f 5a 90 1c 3e 24 64 bc 3d 13 31 9c 3d
       0.5755726 0.15289441 0.09198788 0.07626548
000290 44 53 4f 3f 2e 35 1c 3f 0b 37 11 3f 35 ee 08 3f
       0.8098643 0.61018646 0.56724614 0.53488475
0002a0 a8 81 16 3f 0b cb 1e 3f 71 6e 2f 3f d7 9a 16 3f
       0.5879159 0.6202857 0.68527895 0.58830017
0002b0 56 9f 9a 3e 8c 8b 85 3e 9b cb e7 3e e9 2b bc 3e
       0.3019969 0.26083028 0.45272526 0.3675225
0002c0 5c ba 95 be 39 29 1a bf 50 8c 28 bf 5a b4 1b bf
       -0.29243743 -0.6021915 -0.658391 -0.6082207
0002d0 68 81 67 3c ea 9a 1d be 22 8e 52 be 0d 4e 62 be
       0.014129974 -0.15391126 -0.20562032 -0.22100087
0002e0 a8 7f a3 3d c2 13 95 3c 53 a2 dc 3c da 7a 60 bc
       0.07983333 0.018197898 0.026932871 -0.013701165
0002f0 3a e6 55 bd 42 8d 93 bd 18 2a 2e bd 30 c3 f1 bd
       -0.052221514 -0.07204677 -0.042520612 -0.11804807
000300 0a 63 c4 be c8 c6 8d be 0c d3 9f be 92 46 62 be
       -0.3835681 -0.2769072 -0.31215703 -0.22097233
000310 7d e7 05 be 7f 97 1a be 99 9f d3 3d fd 41 c0 3e
       -0.13076587 -0.15096854 0.10333175 0.37550345
000320 77 78 2f be bd 54 d7 bd 49 e4 a8 3e cf ee 1d 3f
       -0.17135797 -0.105142094 0.32986668 0.6169252
000330 7e 30 a2 be 62 e1 e0 bd 6c 16 a9 3e db d2 cc 3e
       -0.31677622 -0.10980488 0.3302492 0.4000462
000340 6c 53 d0 3c e2 ce 08 3e c1 e8 ac 3d fe c7 09 3e
       0.025430404 0.1336017 0.08442832 0.13455197
000350 3a 81 2a 3c bc 23 f2 bc 66 96 92 3e 02 a1 0a 3f
       0.010406787 -0.029558055 0.2863037 0.5415193
000360 d2 b8 9f bd 40 26 28 3c 5b 15 fe 3e 56 98 36 3f
       -0.077989236 0.010263026 0.49625668 0.71326196
000370 0d 2b f9 bd 5f 41 09 3e 81 47 01 3f 7d ff ea 3e
       -0.121664144 0.13403843 0.5049973 0.45898047
000380 87 46 ff bd 5d 82 91 bd cd e0 e5 bd 1e 02 98 3d
       -0.12464624 -0.07104943 -0.11224518 0.07422279
000390 fc 05 b3 be 9f 45 a9 be 6e 52 14 bc c9 bc b6 3e
       -0.34965503 -0.3306093 -0.009052856 0.35690907
0003a0 87 20 bb be 4a 3c 71 be 7a 66 6a 3e 01 3c f6 3e
       -0.36548254 -0.23558155 0.22890654 0.48092654
0003b0 b8 50 a3 be 61 78 f6 bc 9f a5 9c 3e fc eb 93 3e
       -0.3189752 -0.030086698 0.3059511 0.2889098
0003c0 ad b6 59 bd b8 50 86 bd 4e 73 2b be 02 de c0 bd
       -0.05315273 -0.06558365 -0.16743204 -0.09417345
0003d0 2d a8 c2 bd f0 92 61 be 9a a8 10 be ff 1c 8c 3d
       -0.09504733 -0.22028708 -0.14126816 0.06841468
0003e0 3f b7 75 be 34 63 98 be 97 f7 ee bd 00 e3 b6 3c
       -0.23995684 -0.29763186 -0.11668318 0.022325039
0003f0 c7 6a 82 3c cd f7 16 bc e3 61 ec 3d 88 97 af 3d
       0.015920056 -0.009214354 0.11542108 0.08573824

embedding.patch_embeddings.projection.bias f4 [48]
000000 00 1b d4 3e fe 91 06 be f0 0f 63 be 0e 50 77 3e
       0.4142685 -0.13141629 -0.22174048 0.24151632
000010 07 4f 85 bf 10 45 0f bf c3 71 ef be 7b 54 51 bd
       -1.0414742 -0.55964756 -0.4676648 -0.051105957
000020 dc 9d 63 3e ca 74 ac be ea da 28 3f 5b a0 a0 be
       0.22228187 -0.33682853 0.65959036 -0.31372342
000030 b9 74 46 be 4a 00 f0 3e 7a 76 d8 bf 32 82 43 3f
       -0.19380464 0.4687522 -1.6911156 0.7637054
000040 05 00 0d bf 18 b3 1c 3e 07 c4 ad 3e 28 11 16 3e
       -0.55078155 0.15302694 0.3393862 0.14654982
000050 35 b2 89 3e 10 9e 0b bf 1e 7b a4 3e 39 a4 19 bf
       0.26893774 -0.5453806 0.3212518 -0.6001621
000060 f9 4f f4 3e 9d 2e 81 3d df 48 20 3e a0 fb c6 3c
       0.47717264 0.06307719 0.15652798 0.024289906
000070 75 72 c7 3e af 7f 0c be da 05 6d 3f 84 89 04 3f
       0.3895451 -0.13720582 0.92587054 0.5177233
000080 a9 94 84 3d 5a b3 7d be bd ae 4b be 86 de 7f 3e
       0.06473667 -0.24775448 -0.19890876 0.2498723
000090 6d 99 af bf 71 84 8e 3e c0 50 94 3e 88 4c 55 3e
       -1.3718697 0.2783542 0.28967857 0.20829976
0000a0 c6 aa 81 3f f2 fc 7e bb a0 03 b2 be b7 c8 f0 bd
       1.0130241 -0.0038908091 -0.3476839 -0.11757033
0000b0 1a 11 a1 3e 1d 23 1c be 13 da c0 be 21 e6 86 3e
       0.3145836 -0.1524777 -0.37666377 0.2634745

encoder.blocks.0.attention.qkv_projection.weight f4 [144, 48]
000000 9a 3f a9 3e 69 66 66 bb 4d ca cf bc 02 43 c6 bd
       0.33056337 -0.0035156256 -0.02536502 -0.096807495
000010 ce ca f2 3d c9 a5 4c bc 1a aa 8e bd 19 f3 9d bc
       0.11855088 -0.012490698 -0.06966038 -0.019280957
000020 9d e9 a9 bc 98 6a 92 3c 64 8f 45 be 7d d2 bd 3c
       -0.020741278 0.017873093 -0.1929298 0.023171658
000030 c0 fe 84 be e2 94 e9 3c 77 17 ad bd f7 e1 10 3e
       -0.2597561 0.028513376 -0.08451741 0.14148699
000040 9f 7e ac 3d 15 f6 55 3c 8a 9b 54 3d 69 5b 15 3e
       0.084225886 0.013059159 0.051906146 0.14585651
000050 41 9e d3 3d 5c 43 12 bd 37 35 b7 3d 27 3a 58 3d
       0.10332919 -0.03570877 0.08945697 0.052789833
000060 a7 e3 aa 3a a7 5a c1 bd 7c 1e 34 3e b6 0b 9b 3d
       0.0013037816 -0.09441119 0.17589754 0.07570593
000070 67 ca 9a be a4 66 fe ba a7 d6 63 3d e1 2d b5 bd
       -0.30232546 -0.0019409251 0.05562463 -0.08846641
000080 18 76 00 3d ce 86 fd 3d d4 53 72 bd cd 05 fb 3d
       0.031362623 0.123792276 -0.059161976 0.12256966
000090 a1 40 a4 3c fc 06 4f 3c e3 b5 d4 bd af e6 43 bc
       0.020050349 0.012635943 -0.10386255 -0.011956855
0000a0 a5 25 43 be 44 2d 62 3c 2c 33 13 bd 2a 0c 50 bc
       -0.19057329 0.0138047375 -0.035937473 -0.012698213
0000b0 94 83 ff bd a5 50 ff 3c 64 17 98 3e 67 9d 98 bd
       -0.124762684 0.031166384 0.29705346 -0.07451897
0000c0 24 d5 d4 3e 62 36 0b 3d a5 7c 1f be e5 9f 2e 3e
       0.41568863 0.03398741 -0.15574892 0.17053182
0000d0 1e 66 c8 bd cd ca 86 be c6 e6 dd 3d 96 b0 81 3e
       -0.09785102 -0.263266 0.10835032 0.25330037
0000e0 d7 e9 14 3d 89 19 9c ba 58 c3 a2 3d fc be 73 3e
       0.03635582 -0.0011909466 0.07947415 0.23803324
0000f0 ec d8 06 be b3 c1 c9 3d af 4a 9a 3d 84 86 27 3e
       -0.13168687 0.09851398 0.07533776 0.16359907
000100 9d 5a 55 3e 26 7c e2 bc d9 73 8a bd 00 e3 e6 39
       0.20835347 -0.02764709 -0.067603774 0.00044038147
000110 e3 47 61 bd b5 46 c6 bd 8b c0 01 3e 44 6a 4c be
       -0.055000197 -0.09681455 0.12671106 -0.19962412
000120 7e 72 71 bc 1d 33 3f be 98 4a c8 3e 5e 3a 7c bd
       -0.01473677 -0.18671842 0.3911941 -0.0615791
000130 55 c4 b5 3d 51 24 46 be e7 fc 4c be cb e6 84 be
       0.08875338 -0.19349791 -0.2001835 -0.2595733
000140 69 eb 6c bd 9b 94 e7 be 80 0f 3f bd 15 a0 ad 3d
       -0.057841692 -0.45230564 -0.04664564 0.08477799
000150 f2 b5 8d 3e 41 df 42 3e 5c 03 18 3d 96 3c 17 3e
       0.27677876 0.19030477 0.03711258 0.14769205
000160 b2 11 97 be 16 7f b2 3e cd a3 d1 3d c1 a4 25 3d
       -0.29505688 0.34862584 0.10236321 0.040440325
000170 27 75 9e 3d 77 9a c3 3c 56 13 d3 3d 4e fd 35 be
       0.07737189 0.023877366 0.103064224 -0.1777241
000180 12 28 c3 3e 47 f2 57 be 63 70 12 bd 47 cf 20 3c
       0.3811651 -0.21088515 -0.03575171 0.009815044
000190 35 2c e7 bd e3 8e 3f be cc 37 01 3e 0e 5d d3 3e
       -0.11287729 -0.1870685 0.12618941 0.41281933
0001a0 98 26 b4 3d cc 0d 2e 3e 34 2a 9c bd ce 04 14 3e
       0.08796424 0.1699745 -0.07625237 0.14454958
0001b0 1f 83 3b be 87 f2 1f bc 6d b8 95 bd 30 c1 93 3d
       -0.18311737 -0.009762413 -0.07310567 0.07214582
0001c0 2e f7 78 3e 5f 39 08 3e 6a 90 fc bc e5 58 29 3e
       0.24313042 0.13303135 -0.03083058 0.16537817
0001d0 fb 9a ea 3d 97 db eb bd 34 4b 8b 3e cb 4f bf be
       0.114553414 -0.11516493 0.27205813 -0.37365565
0001e0 bf 9a 1b bd 90 90 8c be 9c 86 b8 3e ff 65 92 3d
       -0.037989374 -0.27454042 0.360402 0.071483605
0001f0 cb 3e 07 bc 88 6b 5c be de fe 89 be c7 b0 d1 bd
       -0.008254717 -0.21525395 -0.2695226 -0.10238796
000200 fc f2 1d bd f5 35 09 bf 8c a2 3b be 5a 1e 62 bd
       -0.038561806 -0.53597957 -0.18323725 -0.055204727
000210 c0 ac 88 3e f5 39 c1 3e eb 08 f4 3d 4c 4b 9b 3e
       0.26694298 0.3773953 0.119157635 0.30330884
000220 4f 96 e6 bd f3 4b e9 3e 16 d1 1e 3d e3 9b 80 3b
       -0.11259138 0.45565757 0.03877362 0.003924833
000230 e6 6b fc 3d 0c ef 37 3d 4e b6 f7 3d 2f d3 53 be
       0.123252675 0.044905707 0.12095319 -0.20686029
000240 12 5f 19 3f 5a 9b 4f 3d 7d 69 ac bd 2c 6f e3 bd
       0.5991069 0.050685264 -0.08418558 -0.11105189
000250 8c 53 9f 3b d2 09 c1 bd 63 46 72 be 25 ce 54 be
       0.0048622545 -0.09425701 -0.23659663 -0.20781763
000260 a5 82 99 be dd 85 ff bd 0c 90 eb bd e6 b5 88 3e
       -0.29982486 -0.12476704 -0.11502084 0.26701277
000270 78 29 ec be 8f a6 b3 3d eb 1f 73 bd 79 98 fb 3e
       -0.46125388 0.08772003 -0.05935661 0.49139765
000280 fa f1 d0 3c 03 5f 21 bd 86 5e 16 bd af a6 44 3e
       0.025506008 -0.03939725 -0.03671124 0.1920421
000290 66 bf a1 bd 57 41 9f bd 24 c2 09 be cb 34 ac 3e
       -0.078978345 -0.077761345 -0.13452965 0.33634028
0002a0 93 1d ce 3d de 07 99 bd 08 51 c2 3e 6e f7 b7 3d
       0.100642346 -0.07472204 0.37952447 0.0898274
0002b0 d1 93 0d be 32 ba fd bd b5 6d 7b 3e 42 21 02 bf
       -0.13825919 -0.123890296 0.24553569 -0.50832
0002c0 67 91 0f 3d 5b c5 9a 3e 89 ce 5c bd 3f 8e a6 3e
       0.035050776 0.30228695 -0.053907905 0.325304
0002d0 cf 7c ff bd c7 f5 00 be 6d b3 23 be e0 b2 b6 be
       -0.12474977 -0.12593757 -0.15986414 -0.35683346
0002e0 19 a6 ff be 60 fc fd 38 6e 7a 9f 3e 90 0b b0 3d
       -0.4993141 0.000121109886 0.31148094 0.08595955
0002f0 2b bf 7d bd 70 42 b3 3e 7f 69 b7 3e 7f eb ab 3c
       -0.06194989 0.35011625 0.35822675 0.020986317
000300 7e e7 b6 be 3b 6a 65 3e f8 21 a3 3e 07 0c a6 3e
       -0.3572349 0.22403805 0.31861854 0.3243105
000310 0f 3f b9 be a3 e3 d4 be a5 3f 0a 3f 7e 96 f3 3d
       -0.36180922 -0.41579923 0.54003364 0.118939385
000320 21 4e cd 3e 87 ac 8c be e8 12 ae 3e 21 b6 79 be
       0.4009867 -0.27475378 0.339988 -0.24385883
000330 90 75 bc 3e e3 82 5f be d4 f6 47 3e ff 23 06 bf
       0.36808443 -0.21827273 0.19527751 -0.52398676
000340 c3 a1 83 3d 67 63 d3 3c 61 1e fa bd 76 c0 da be
       0.06427338 0.025804235 -0.122128256 -0.4272496
000350 1f b0 77 be fe d2 28 3e e6 1a ec bc d0 92 1e 3f
       -0.24188279 0.16486737 -0.02882142 0.6194277
000360 fd 59 0f be b0 8e d8 3e a3 36 2e bf cd 46 db bd
       -0.13999172 0.42296362 -0.6805212 -0.107068636
000370 88 72 b6 3d 3d b2 d9 3d b1 52 b5 bd 1c 8d c6 3e
       0.08908564 0.106296994 -0.08853663 0.38779533
000380 1a ae 3e bd 4a cf 92 bd ca f3 d8 3e d3 8a 32 bf
       -0.046552755 -0.071684435 0.42373496 -0.6974308
000390 27 d4 2b be e1 ba ab be 2e 44 a7 be b2 7b cd 3d
       -0.16780148 -0.33541015 -0.32669204 0.10033359
0003a0 55 d8 8b 3f 1f 0c 95 be 9d 4c a9 3e 44 69 c6 3c
       1.0925394 -0.2911081 0.33066264 0.024220116
0003b0 68 ae f7 3e 96 10 34 be 2b ea 01 bf 60 ad 90 3e
       0.4837525 -0.17584452 -0.50747937 0.28257275
0003c0 46 0e d9 3e 77 5f 50 be cf e0 1e bd 10 57 09 bb
       0.42393702 -0.20348917 -0.038788613 -0.0020956434
0003d0 d1 4d e4 bd 9c bb 52 be 08 49 a1 3d 4f fe af 3e
       -0.11147655 -0.2057938 0.07875258 0.3437371
0003e0 52 cd 3f 3d 4d 07 19 3e 33 fb 74 bd 98 57 4f 3e
       0.046826668 0.14944191 -0.059809875 0.20248258
0003f0 74 ce 69 be fb 20 f1 3c 22 54 f1 bd b6 c0 29 3e
       -0.22832662 0.029434672 -0.11783625 0.1657742

encoder.blocks.0.attention.qkv_projection.bias f4 [144]
000000 f5 c0 95 3e c8 b8 9e 3b 2d 5a 6d bd df 76 07 3e
       0.29248777 0.004843805 -0.057947326 0.1322894
000010 a2 33 e5 bf 0c eb 29 bd a6 79 09 3f 9c ce b8 bd
       -1.7906382 -0.041483924 0.53701246 -0.090237826
000020 eb 5d 33 bc db 4c c0 bd 87 bf 87 bc 63 ff 83 bf
       -0.010947685 -0.09389659 -0.01657082 -1.0312313
000030 43 29 ec 3d cc 78 76 3e 6a 69 8b bd 92 fd 8d be
       0.115313075 0.24069518 -0.068072155 -0.2773252
000040 d9 4e 8f 3e ae 9a 62 3c d9 b3 67 bd bd 2d 98 be
       0.27989843 0.013830824 -0.056568 -0.29722396
000050 55 f8 d9 3e 24 67 ae be 69 3d dd 3e c6 bc f4 be
       0.42572275 -0.34063065 0.43210915 -0.47800273
000060 f6 01 70 be 31 f3 ea bd b9 7f 94 3e 1c 4d 3b 3f
       -0.23438248 -0.11472166 0.29003695 0.73164535
000070 26 53 06 bf 12 e0 4b 3e 20 32 ac 3d 38 cd 08 3f
       -0.52470624 0.19909695 0.08407998 0.5343814
000080 db b2 5d 3f 9f cc 71 3f ea 40 18 3f 41 d4 4d be
       0.86601037 0.9445285 0.5947405 -0.201005
000090 82 cf 62 be b2 5f 87 be d6 90 64 3e 7d 7c 45 be
       -0.2214947 -0.26440197 0.22320876 -0.1928577
0000a0 b1 d8 9e be c9 1c 45 be 44 3f 6a 3d 78 be 4f 3d
       -0.31024697 -0.19249262 0.05718924 0.050718755
0000b0 56 e9 b9 3e b5 e4 82 3e dc 62 0a 3d 87 5e 7f 3e
       0.36310834 0.25565115 0.033785686 0.24938403
0000c0 c9 4e fb 3c bc f9 41 3d 7b 3c b3 3d ef 6f 20 bc
       0.030677216 0.047357306 0.0875177 -0.009792312
0000d0 c9 fa 09 3e 30 0f cc 3d 7b f3 d7 bc 9c 38 97 3d
       0.13474573 0.09963834 -0.026361218 0.07383844
0000e0 7e 25 e2 3d 15 51 75 3d a4 2c c2 3c 99 c7 18 bd
       0.11042307 0.05989178 0.023702927 -0.037299726
0000f0 ab cc 50 3c c7 cf 69 3d a6 db b2 3b 14 f3 b9 3c
       0.012744109 0.057082918 0.005458313 0.022698916
000100 f8 cc 59 bd 4b 7a 8a bb 94 86 c9 bc 6d 90 52 3c
       -0.05317399 -0.0042260042 -0.024600305 0.012851817
000110 84 49 38 bc 9a 8c 87 ba 45 d6 98 3c 98 a5 40 3d
       -0.011247996 -0.0010341585 0.01865686 0.047032923
000120 ba ba cf 3c 64 98 19 3c 5a 86 85 3b c4 44 d1 bd
       0.025357593 0.009374712 0.004074854 -0.10218194
000130 a6 d7 8d 3d 57 66 9c bc 49 9d 88 3b b3 41 e7 bd
       0.06925897 -0.019091768 0.0041691405 -0.11291828
000140 65 9d 18 be 78 0c ef bd 25 3e fc bd ac 7c e4 3c
       -0.14903791 -0.116723 -0.12316541 0.02789148
000150 e0 36 8c bc 72 04 64 bd 44 c7 85 bb 96 aa 9b 3a
       -0.01711601 -0.055668302 -0.004082592 0.00118764
000160 ab c3 55 bb cd a3 51 bc 39 35 02 3d 0b f9 b4 b9
       -0.0032617848 -0.012795401 0.03178904 -0.00034517827
000170 5c 9a f4 bb 74 c4 45 3d 1e 17 80 3c 4e 90 e3 3c
       -0.00746469 0.048283055 0.015636023 0.02777877
000180 3b ef 7b bc a7 12 98 be 67 4c b8 bc f9 40 9e 3c
       -0.015376861 -0.2970173 -0.022497369 0.01931809
000190 19 cc 99 bd f2 4c 3b 3d ac e1 3a 3d 05 5d 8c bd
       -0.07509632 0.045727678 0.045625374 -0.068536796
0001a0 4c f1 be bd a1 03 26 bc 9b c0 da 3c a5 8d 0e 3d
       -0.093233675 -0.010132701 0.02670317 0.03480305
0001b0 96 24 48 bd c0 03 62 3d f7 fd 4e be 8d d8 c4 bd
       -0.048863016 0.055179358 -0.20214067 -0.09611616
0001c0 d6 b0 47 be ea 95 e7 bd b0 f0 78 bd e8 17 83 3d
       -0.19501051 -0.11307891 -0.060776412 0.06401044
0001d0 78 ad e5 bd ce af ff 3c 9c 94 01 bb d2 24 76 3d
       -0.11214727 0.03121176 -0.0019772416 0.06009371
0001e0 b8 02 b6 3d 07 c6 81 be 5b 2f dc bd 8c b1 1e 3d
       0.08887237 -0.25346395 -0.1075122 0.03874354
0001f0 0c 09 a9 3d c6 c4 8f 3d b4 01 36 3d 8f 26 ee bd
       0.08253679 0.070199534 0.044435218 -0.11628448
000200 16 bc 89 3d a2 3c 40 3e 2a 12 a9 3c af 5e 83 3c
       0.06725328 0.1877313 0.020638544 0.01603636
000210 3a fa 6b bd 55 ef a4 3b f6 44 2a 3d f5 ae b2 bc
       -0.05761168 0.0050334134 0.041569673 -0.021811942
000220 1f 8e b4 3d 67 f2 a3 3b 31 49 a9 bc 38 09 fb bc
       0.0881617 0.005003262 -0.020664783 -0.030644044
000230 6d 09 99 bc 2b 7a 74 bd 73 ed 5d 3d 67 e0 7c bd
       -0.018681252 -0.05968682 0.054181527 -0.061737444

encoder.blocks.0.attention.output_projection.weight f4 [48, 48]
000000 d1 d7 00 be 91 d0 4d bd b6 6e a0 bd 92 ad ff 3d
       -0.12582327 -0.050247733 -0.078336164 0.12484278
000010 75 89 02 be d1 c3 d5 3c e0 4b 20 be cc 0c d7 bd
       -0.12747748 0.02609435 -0.15653944 -0.10500488
000020 38 b9 52 be a3 37 91 bd 9f da c7 3c bd bd cb bd
       -0.20578468 -0.0709069 0.024396239 -0.09948299
000030 6a 90 21 3d 4e be a9 3a b7 33 47 be f6 b4 05 bd
       0.039444365 0.0012950392 -0.19453321 -0.03264328
000040 36 45 27 3c 56 0f 1c be 56 02 c3 3c 45 ba 82 3e
       0.010209372 -0.15240225 0.023804825 0.25532737
000050 1f e5 6b be 58 1e 31 be 61 d2 4e bb b0 fa 9d bd
       -0.23036622 -0.17296731 -0.00315585 -0.077138305
000060 c3 95 12 3e dc 8a 0c 3d d5 8f 61 bd b8 94 f8 bc
       0.14314942 0.034312114 -0.05506881 -0.030344352
000070 67 79 89 bd 99 07 ec bb 51 96 53 bd 70 d5 97 bd
       -0.06712609 -0.007203054 -0.051657025 -0.07413757
000080 8d 71 20 be b0 39 0c 3e 36 ff 00 3d 2e 00 ef 3d
       -0.15668316 0.13693881 0.031493388 0.11669956
000090 1d 8b 98 bd a8 9c d7 3c b9 1a 3b 3d bb ce 90 3d
       -0.07448409 0.026319817 0.04567978 0.07070681
0000a0 02 1f 9b 3b 63 60 9f 3c ac 63 8d be 7c a2 36 3d
       0.004733921 0.01945514 -0.27615106 0.04458855
0000b0 94 75 af bd 1a 66 d0 3d 32 93 e4 3a a8 43 8e bd
       -0.08567348 0.10175724 0.0017438887 -0.06946498
0000c0 70 b7 b2 bd ce 95 e2 bd 4d c0 a4 3d 8f ff c5 3d
       -0.08726394 -0.11063729 0.08044491 0.096678846
0000d0 fb 04 2c bd 1e 20 af bd e6 bb 0b be fe b9 a3 3c
       -0.041996937 -0.08551048 -0.13645896 0.019986149
0000e0 1c c4 4a be eb 7c 2a bc 2e f5 a8 bb 57 ed 08 3e
       -0.19801372 -0.010405759 -0.005156181 0.13371788
0000f0 1c 57 a1 bd 33 91 51 bd a1 e3 6a bd e8 a4 e5 3c
       -0.07877943 -0.051163863 -0.05734599 0.028032735
000100 b3 3c 1b 3e a3 25 eb bc aa 4f 98 ba ae 96 63 3e
       0.15159874 -0.02870447 -0.0011620421 0.22225448
000110 58 13 45 bd 1c 57 76 3c 07 e6 32 bd b4 4b 21 be
       -0.04811415 0.015035417 -0.043676402 -0.15751535
000120 bc 15 98 bd 06 88 04 3e 65 a5 2d 3d e6 30 43 bc
       -0.074260205 0.12942514 0.04239406 -0.011913514
000130 5f 23 48 bc 36 21 7c bd 47 7d 9d bc f5 6d 54 3d
       -0.012215464 -0.06155511 -0.019224776 0.051862676
000140 47 c3 9c bd 2d ea 43 bd c8 64 0e 3d 02 b8 ad bc
       -0.07654434 -0.04783075 0.03476408 -0.021205906
000150 03 52 7e 3d f5 4b 92 3c 95 a2 13 be 5e ee ab bd
       0.06208993 0.017858485 -0.14417489 -0.08395074
000160 76 28 16 bd 92 6d 2c bd 8b 5c 69 3e 8c b0 25 3e
       -0.03665968 -0.042096682 0.22789209 0.16180629
000170 24 f3 f4 3d 4e b9 a8 3c 39 b1 ee bd 1c c1 f0 3d
       0.11960438 0.020596173 -0.11654896 0.11755583
000180 4d c5 63 bd b8 0d 80 bd 4b 43 ac bd 9a ba f8 3d
       -0.055608083 -0.06252617 -0.084112726 0.121449664
000190 14 4b 90 3d 3c 7f 62 be 1d 9f 86 bd b3 dd 9e bd
       0.0704557 -0.22118849 -0.06573317 -0.077571295
0001a0 4a 26 f7 bc cb 7e 9c ba fb 88 84 be db cb 43 be
       -0.030169625 -0.0011939643 -0.25885758 -0.19120733
0001b0 dd 8e 04 3d 9d f3 77 be cb 30 5a 3d 1d 46 98 3d
       0.032362808 -0.24214025 0.05326919 0.07435248
0001c0 ea af c1 3e 1e a2 9e bc a3 fa 0f bd b2 c2 ad 3e
       0.37829524 -0.019364413 -0.035151135 0.33937603
0001d0 12 86 6e bd 2f c3 46 3d 74 ff 8a bd c9 a7 ee bc
       -0.05823333 0.048525985 -0.06787005 -0.02913274
0001e0 3d 51 96 be 05 d5 73 3d 18 af 3f 3a ea 32 d1 bc
       -0.29358855 0.059529323 0.0007312163 -0.025536973
0001f0 ea 46 87 bd e8 eb bf bd 4e 97 87 bd ce 76 50 3e
       -0.06605323 -0.093711674 -0.06620656 0.2035782
000200 17 7d 59 bd 7a 11 1b be 1d 3d 91 ba c2 10 f6 bd
       -0.05309781 -0.15143386 -0.0011080835 -0.12014915
000210 e5 eb 36 be 13 83 92 3e d2 02 3e be 9f 15 f9 3d
       -0.17863424 0.28615627 -0.18555763 0.12162327
000220 b6 2c 23 3d 2b 96 9e 3e ac bb 68 3e e5 09 09 3e
       0.03983756 0.30973944 0.22727841 0.1338268
000230 18 89 2e bd 34 5c 4f 3b bc 0b 11 be 7d 78 f4 bd
       -0.04261121 0.003164065 -0.14164633 -0.11937044
000240 6d 91 30 bc 03 ca dd 3e 26 df fc bd 66 ee 07 3d
       -0.01077686 0.43318185 -0.1234725 0.03318634
000250 b0 66 a3 bc 4c 2f f2 3d bc 38 33 3c 0b bb 89 bd
       -0.019946426 0.118254274 0.0109388195 -0.06725129
000260 3e 78 ae 3e 0d 23 00 3e 41 a0 6f 3e 48 f2 71 3e
       0.34076113 0.12513371 0.23400976 0.23627579
000270 7c f0 81 3d 2c a6 01 bf 62 2b 1a 3e 25 59 d4 bd
       0.06344697 -0.50644183 0.15055612 -0.103685655
000280 04 b3 ec 3d e4 dc 56 3c 54 d5 b4 bd a9 5c d6 3e
       0.11557582 0.013114188 -0.088297516 0.4186757
000290 80 67 d1 bd a1 04 48 3d b3 16 3a bd f9 0d 72 3d
       -0.10224819 0.04883254 -0.045431804 0.059095357
0002a0 ff eb d8 3d b2 5b 6a 3e 9c 5f 75 3e 9b 30 9a 3d
       0.10591888 0.22886541 0.23962253 0.07528802
0002b0 67 2e 05 3d 98 f1 1f 3d 49 f8 73 3d 83 f4 1c 3d
       0.032514956 0.03904876 0.059562955 0.038319122
0002c0 00 61 a9 3d 3c a5 d2 bd e9 68 1e bc 78 59 91 bd
       0.082704544 -0.10285422 -0.009668567 -0.07097143
0002d0 c5 74 27 3e 52 4b 70 3d 9a 08 29 3d 1e a1 35 be
       0.16353138 0.05866558 0.04126797 -0.17737243
0002e0 3d d9 ba bd b9 3a 85 3e 53 6f 0e bf 98 75 6f bc
       -0.09123466 0.26021364 -0.5563862 -0.014615439
0002f0 8b 6d 82 be 5f 63 09 3e 71 51 e6 bd 6d df 78 bb
       -0.254742 0.13416813 -0.112460025 -0.003797497
000300 de 8e b0 bc 4e 49 e9 bc aa 50 94 bc 8b 65 8d 3c
       -0.0215525 -0.028477337 -0.01810487 0.017260334
000310 e5 7d 2b be 22 7e 3d 3e 8d aa 45 be 4a 6d ca bd
       -0.16747244 0.18505147 -0.19303341 -0.098841265
000320 9f 78 fb bd 87 07 b9 3c ab d1 e4 3d ee cd 90 3d
       -0.12278866 0.022586597 0.111728035 0.07070528
000330 99 6f 7a 3c 39 91 aa be 76 ba fb 3d 85 b9 f2 bd
       0.015285396 -0.3331392 0.12291424 -0.11851791
000340 b8 4a 1b bd 37 d7 2c 3c bf a6 8c 3c ce 6e 58 3e
       -0.037913054 0.010549358 0.017169354 0.21136019
000350 c8 32 e4 bd 8c ff 35 3d 09 e9 05 be 83 d7 89 3c
       -0.11142498 0.04443316 -0.13077177 0.016826397
000360 70 ef 34 be bd ee 50 bd e9 71 34 3d 88 6e 5e bc
       -0.17669463 -0.05100893 0.044053946 -0.013576157
000370 74 21 d9 bd 7b 70 2e bd 4b de 94 bd 24 e2 e9 bb
       -0.10602084 -0.04258774 -0.072689615 -0.0071375538
000380 ff 02 91 3d de 35 03 be 10 4d 81 3c 3d eb b2 bd
       0.070806496 -0.12813517 0.015783817 -0.087362744
000390 ea 9b 3d 3e fa 80 3b bd 27 20 0b be cb 10 40 bd
       0.18516508 -0.0457773 -0.13586484 -0.046891015
0003a0 de ac 36 be 09 19 24 bd db 6f 84 be b5 5d 92 3d
       -0.17839381 -0.040062938 -0.2586659 0.071467794
0003b0 d8 6b ae 3c 1f eb 14 3e 8f 1f b2 bc 8f 18 42 bd
       0.021291658 0.14542817 -0.021743564 -0.047386702
0003c0 ef 5b 51 bd e7 67 62 be 8f a7 b4 be 25 3a a0 bd
       -0.051113065 -0.22109948 -0.35284087 -0.0782359
0003d0 52 bc d5 bd 0d 32 66 bd 6c 63 b0 3e 34 70 a6 be
       -0.1043631 -0.056200076 0.34450853 -0.3250748
0003e0 91 6e 2f 3e 3d 3f 3d bd 5b 79 30 be e0 0a 71 be
       0.17132021 -0.046202887 -0.17233793 -0.23539305
0003f0 26 09 5d bd a1 61 f7 3e 73 f5 6c be 81 9c b0 bc
       -0.053963803 0.48316672 -0.23140506 -0.021559002

encoder.blocks.0.attention.output_projection.bias f4 [48]
000000 03 c3 01 3f c6 c1 a0 3c 40 c6 0e 3c eb 37 8c 3e
       0.5068819 0.019623648 0.008714259 0.27386412
000010 af e6 1a 3f fd 39 0d bc bc 72 4e be 6c 19 ca be
       0.60508245 -0.0086197825 -0.20160955 -0.3947252
000020 8e ad 90 3d 09 60 21 bf b8 60 8a 3e c4 74 ec be
       0.07064353 -0.63037163 0.27026916 -0.46182835
000030 2d e4 3c be 64 4c 36 be 66 5b c3 be bc 8c 9c bc
       -0.18446417 -0.17802578 -0.3815567 -0.019110076
000040 86 38 8f be 5b c5 55 be d1 3a 10 3f 97 3d 63 3e
       -0.2797281 -0.20876066 0.56339747 0.22191463
000050 b2 df 57 3e 98 1a 76 bf 52 91 a1 bc 72 e5 60 3e
       0.21081427 -0.9613433 -0.019722614 0.21962526
000060 83 f2 d2 3e 43 19 6c 3e 4f 40 99 3e 6d 9b c0 3c
       0.41200647 0.23056512 0.29931876 0.023511613
000070 00 a8 51 3d cf e1 7a 3e 39 da 0e 3f dc 99 66 be
       0.051185608 0.24500202 0.5580173 -0.2251963
000080 46 29 1d 3f 3c 31 0f 3f 26 21 d7 3c 08 9f c9 3d
       0.61391103 0.559345 0.026260924 0.09844786
000090 d6 4d 1c bf db 1b 0b bf c6 23 b1 bd 81 c7 60 be
       -0.6105627 -0.5433938 -0.08649401 -0.21951105
0000a0 0a fc 6e be 89 46 01 3e e2 4e 13 3e a6 f9 3f bf
       -0.23338333 0.12624563 0.1438556 -0.7499031
0000b0 fb 47 0c 3e b7 c4 27 bd 9c 2d 9d 3e 9a 7d ec 3a
       0.13699333 -0.040959086 0.3069886 0.0018042803

encoder.blocks.0.layernorm_1.weight f4 [48]
000000 55 a0 65 3e 5e a6 b7 3d c2 f0 95 3e ff 60 72 3e
       0.22424443 0.08967279 0.29285246 0.23669814
000010 07 15 6d 3e 10 cf c3 3e 77 58 37 3e d5 16 7f 3e
       0.23152553 0.38243914 0.1790484 0.24911053
000020 58 40 49 3e f6 56 26 3e 09 86 05 3e 31 40 80 3e
       0.19653451 0.1624411 0.13039412 0.25048974
000030 ec b4 31 3e 20 d8 06 3c 96 f0 de 3d 8b b1 01 3f
       0.17354172 0.008230239 0.10885732 0.50661534
000040 99 dd 8b 3e 22 44 c3 3d ca 4c 3b 3e ec 20 3a 3e
       0.27317503 0.0953448 0.18291011 0.18176621
000050 e3 19 74 3d 7d 00 08 3e a7 d1 fc 3d 1a 8a e1 3e
       0.059595 0.13281436 0.123446755 0.44050676
000060 3a 51 81 3e 50 b4 ec 3d 5d bd 87 3e eb 51 5d 3d
       0.25257283 0.115578294 0.2651166 0.0540332
000070 47 12 41 3e 43 18 32 3e 90 dc 4e 3e 1f 5b 99 3e
       0.18854629 0.17392068 0.20201325 0.29952332
000080 3e 9d de 3a dd a8 6f 3e 56 e6 5b 3e 26 c8 57 3e
       0.0016984118 0.2340426 0.21474585 0.21072444
000090 4e aa 7f 3e 25 5f 63 3e cb 51 3c 3e 64 09 35 3e
       0.2496731 0.22204264 0.18390577 0.17679363
0000a0 9f bf 49 3e a5 f7 52 3e 31 cd a6 3e 29 c8 ea 3d
       0.19702004 0.20602281 0.32578424 0.11463959
0000b0 bc 5a 6b 3d 6c f9 bd bb 59 f0 9c 3e 28 3b 88 3e
       0.057459578 -0.0057975557 0.3065212 0.26607633

encoder.blocks.0.layernorm_1.bias f4 [48]
000000 7e d0 c9 bd 2b 58 9e 3c d1 8f bb 3d d4 c7 da bd
       -0.0985422 0.019329151 0.0915829 -0.106826454
000010 47 06 17 3e 35 ae 17 3e 63 e0 64 3d 4f a3 e5 3d
       0.14748488 0.14812548 0.055878054 0.11212789
000020 bb 07 7e bd 5e ee 61 3d c0 10 8f bd e4 8b 09 3b
       -0.06201909 0.055158965 -0.06985617 0.0020987922
000030 22 57 48 3d 37 4e 0b bc 83 cc 0b 3e f6 39 15 be
       0.04891122 -0.008502535 0.13652234 -0.14572892
000040 35 7b 61 3e d8 e3 b4 bb 53 6b 29 bd 58 de 5c bd
       0.22019656 -0.005520325 -0.041362118 -0.05392298
000050 e7 ae 5f bd cd f3 86 3d 66 5b 5d 3c 37 e0 76 3e
       -0.05461016 0.0658947 0.013510561 0.24108969
000060 03 b0 2e be 5c 0b 1a bb 78 9a 8f bd 58 5c 8a bc
       -0.1705933 -0.0023505306 -0.070118845 -0.016889736
000070 c2 83 99 bd 66 b2 c0 3c b5 f7 28 be 59 39 e2 bc
       -0.07495834 0.023522567 -0.16500743 -0.027615236
000080 ee f0 98 3c 40 15 c5 bd 88 28 d6 3c 08 ca 6a bd
       0.018669572 -0.09623194 0.026142374 -0.05732158
000090 e3 dd ad 3e 04 d3 ba bc 6d 81 86 bd b2 3d 53 bc
       0.3395835 -0.022805698 -0.06567655 -0.012893127
0000a0 01 13 68 bd e2 48 81 3c 9c 5c d3 bc 06 5d 19 bc
       -0.05665875 0.015781824 -0.025800996 -0.009360557
0000b0 70 68 2d bc 5e 4a 29 bc 04 5e b7 3d 4a 0a 7d bd
       -0.010583982 -0.010332672 0.08953479 -0.06177739

encoder.blocks.0.mlp.dense_1.weight f4 [192, 48]
000000 f7 4b 78 3e 52 c8 5b bf cd 9c 49 be 72 fb 89 be
       0.24247728 -0.8585254 -0.19688721 -0.2694965
000010 c5 11 d7 be 4b 36 09 3e f8 d4 94 3e 2b 68 3a 3f
       -0.42005745 0.13399617 0.29068732 0.728152
000020 9e 3e 80 3e 70 28 ea 3e d1 a4 c0 be 18 4b 55 3e
       0.25047773 0.45733976 -0.37625745 0.20829427
000030 d8 7b 34 bd 3e ae 57 bc 22 5e 7d 3e 26 d4 2f be
       -0.04406342 -0.013164101 0.2474294 -0.17170772
000040 2d b0 24 3d 8d 21 e4 3e c7 c2 20 bd a7 c9 0f 3e
       0.040207077 0.44556847 -0.039248254 0.14041768
000050 fa 25 43 3f a4 43 a4 be 28 6c d2 be ed d0 b6 be
       0.7622982 -0.32082856 -0.41098142 -0.35706273
000060 2f c7 6b be 6f 8a 10 bf 58 c7 a9 3e 51 7d 13 3f
       -0.23025201 -0.5646123 0.331599 0.5761309
000070 55 43 05 bf c3 ec b1 bd e4 5d 06 be 71 a0 77 be
       -0.52055866 -0.08687737 -0.13121754 -0.24182297
000080 78 5a a8 be a4 a8 73 be 1b 34 0a bf ed 04 d2 3d
       -0.32881522 -0.237948 -0.53985757 0.10254846
000090 ee a8 77 3e 58 c5 37 3f 74 dc 51 3e 79 fa e0 3e
       0.24185535 0.717855 0.20494252 0.43941095
0000a0 e1 64 06 3e 1f c9 1b 3f 4b 4a da 3e 9b 0d c4 3d
       0.1312442 0.6085376 0.42634806 0.095729075
0000b0 0b 9b 38 3e 2f 06 d5 bd 6f 4a 49 3d 36 93 c4 be
       0.18027894 -0.1040157 0.04914325 -0.38393563
0000c0 e2 b9 8b 3e 9b 36 cb be e5 bd c8 bc 4a 57 f3 3c
       0.27290255 -0.39690098 -0.024504611 0.029704709
0000d0 49 d8 ea be 10 38 eb 3d b5 9a 16 3f 0e 1a d1 3e
       -0.45868137 0.114853024 0.58829814 0.4084019
0000e0 f2 44 94 3d 79 8c 8e 3e d4 36 c2 be e4 cd 91 3e
       0.07239713 0.27841547 -0.37932456 0.28477395
0000f0 ae a2 9b bd ae c4 18 be df 8c 31 3e a0 5f 4c 3e
       -0.07599388 -0.14918777 0.17338894 0.19958353
000100 06 96 33 3e 6f 6a a0 3e 3b f3 d9 bc 9e 92 9c 3e
       0.17537698 0.31331202 -0.02660524 0.3058061
000110 70 e6 04 3f 5f 37 a6 bd b1 70 ce be b7 b9 1f 3e
       0.5191412 -0.0811603 -0.40320352 0.15598188
000120 ab 9b 36 be 6f 7c e3 be b5 f6 9f 3e 7b d3 06 3f
       -0.1783282 -0.44430873 0.3124291 0.52666444
000130 b9 74 eb be e8 47 3c be 92 9a 89 be f3 ae 9b be
       -0.4598749 -0.18386805 -0.2687574 -0.30406913
000140 5b ae c9 be c7 e4 a4 bc ea 5b 3d be b0 f7 2c be
       -0.39390835 -0.02012862 -0.18492094 -0.1689136
000150 b1 29 8d 3e 60 6a 19 3f 31 e7 31 3d 3e aa 73 3e
       0.2757087 0.5992794 0.043433372 0.23795411
000160 f4 e8 cb 3d f4 ed 52 3f 63 41 75 3e 4e 63 d2 bc
       0.09956542 0.8239434 0.23950724 -0.025682118
000170 e4 47 c4 3e 76 b5 94 3d 5a 9b 41 bc 7d 0c 7c be
       0.38336098 0.072611734 -0.011816824 -0.24614139
000180 38 76 f0 bd 0e a3 75 3e 23 22 5e 3f 58 75 c3 be
       -0.117412984 0.23987982 0.8677084 -0.38175464
000190 30 dd 3f be b1 66 08 3d a1 80 18 3f d4 2a 57 3f
       -0.1873672 0.03330106 0.5957127 0.84049726
0001a0 df a5 c6 3e 6a 6c 55 3e e1 73 11 bf a4 0c 01 3e
       0.38798425 0.20842138 -0.5681744 0.12602478
0001b0 f4 4c e0 bc cb 51 4f be 4c e5 3d bb 7c f1 59 be
       -0.027380444 -0.20246045 -0.0028975783 -0.21283525
0001c0 75 0d e7 3d ba be 51 3e 14 67 bc be 2b de 53 be
       0.112818636 0.20482913 -0.36797392 -0.20690219
0001d0 ca 16 42 3d 9c 1d ee 3e 72 7b bd 3e b1 bf 93 3e
       0.047385015 0.46506965 0.37008244 0.28857186
0001e0 21 04 95 bf c9 53 fb 3a 0f 15 22 bf bb 0e d8 bc
       -1.1641885 0.001917475 -0.6331338 -0.026374212
0001f0 1c 52 b5 be 0f 92 ac be 6f 7d 04 bf 05 bb 8f bd
       -0.35414207 -0.33705184 -0.51753896 -0.07018093
000200 12 a3 93 be e9 36 85 bf 92 20 7c bd 9a a7 33 bf
       -0.2883535 -1.0407382 -0.0615545 -0.70177615
000210 ce 3c 38 3e 0f f5 16 be 4c cb 8d 3e 7b 3f 13 3f
       0.17991945 -0.1474192 0.27694166 0.5751874
000220 0e 3b 23 be 26 cc ac 3d f3 7c 03 3f 28 f0 84 3d
       -0.15940496 0.08437376 0.5136253 0.06491119
000230 ee d9 81 3e 3a 46 ab 3d de f5 da be 1c 35 37 be
       0.2536158 0.08363004 -0.42765707 -0.17891353
000240 e2 8c cf bd 8d bf 1b bf fd aa 6b 3e 80 38 58 bd
       -0.10134293 -0.6083916 0.23014446 -0.052788258
000250 f1 9c 52 bf f5 94 e8 bd 7d 3d 06 3f fd 6e 93 3f
       -0.82270724 -0.11356536 0.52437574 1.1518246
000260 73 d5 72 3f b2 07 8d 3e 93 68 0d bf 5c 1e e6 3d
       0.9485695 0.27544934 -0.5523769 0.11236259
000270 ad 45 40 bc be 9d 15 3e 49 76 44 3e e2 65 a6 be
       -0.011735362 0.14610955 0.19185747 -0.32499605
000280 e0 d7 5c 3e da 05 fe 3e 7a 9f ef bd 2d 3b 8f 3d
       0.21566725 0.4961384 -0.117003396 0.06993709
000290 63 18 40 be 64 cc 8b bc 11 ab 23 be fe ef 60 bf
       -0.18759303 -0.017065234 -0.15983225 -0.878662
0002a0 89 f5 6b be 0d 6e 70 3d 9b d1 97 be c4 46 a5 3d
       -0.23042883 0.058698703 -0.29652104 0.08070138
0002b0 7a de 63 be 74 40 99 be bf a1 d3 3d 75 40 44 3e
       -0.22252837 -0.29931986 0.10333585 0.19165213
0002c0 7c 6a 03 bf e4 9b 78 bf 16 5d b8 be 61 ab 49 be
       -0.5133436 -0.9711287 -0.3600852 -0.19694282
0002d0 5d 96 28 bd 55 74 38 3e 6f eb 32 3e 28 7a 17 3d
       -0.041159023 0.18013127 0.17472623 0.03698173
0002e0 16 69 de 3d a2 4e 73 3e 35 ec 34 3f e8 11 dd bc
       0.10859887 0.23760465 0.70672923 -0.026986077
0002f0 43 ed 67 3f 15 30 21 3d 00 54 95 bd 0a 3a d9 bd
       0.9059641 0.039352495 -0.07291412 -0.10606773
000300 1c c3 67 ba 12 59 57 be 4f 2e 9b 3d d8 7c 47 bd
       -0.0008841024 -0.21030071 0.07577192 -0.048703045
000310 32 a4 02 be a7 70 b6 3d d4 b2 d7 3e af 63 1b 3e
       -0.12757948 0.089082055 0.42128623 0.15174745
000320 99 ea 36 3b f4 f1 0b 3f 8c 18 df be 9f f2 07 3e
       0.0027910827 0.54666066 -0.43573415 0.13276146
000330 28 6d c4 bc 76 9f 4c bb ef b6 1f 3d fe 02 b4 3d
       -0.023977831 -0.0031222976 0.03899282 0.08789633
000340 a3 05 6e 3e 78 2e 8f 3e 3f 59 35 bd da 5f 27 3e
       0.23244338 0.2796514 -0.044274565 0.16345158
000350 f1 52 c7 3d 3a 28 d5 bc 23 40 2e bd 45 f8 0b 3d
       0.09732617 -0.026020158 -0.042541634 0.034172315
000360 6a a0 9f be c8 45 43 be e0 98 fe 3d 66 05 9f 3e
       -0.31177074 -0.19069588 0.12431502 0.31058806
000370 57 c5 ea be ca 0a 08 be 94 92 bb be af 08 6a 3b
       -0.45853683 -0.13285366 -0.36635268 0.0035710742
000380 d5 ce d8 be 51 04 3b be b3 00 e4 bd cb d4 c4 bd
       -0.423453 -0.18263365 -0.11132946 -0.096108995
000390 a8 ce e8 3e a6 0f fa 3e dc 3b 03 3c 5a b5 9f 3e
       0.45470166 0.48840064 0.008009877 0.31193048
0003a0 d8 11 3f ba 87 66 ac 3e 64 2c 8d bd ca a6 e6 bc
       -0.00072887307 0.33671972 -0.068932325 -0.028155703
0003b0 32 04 25 bc 20 6e f3 ba fb 22 62 bd fa a6 24 be
       -0.010071801 -0.0018572249 -0.05520914 -0.16079322
0003c0 83 90 50 be 81 32 02 be cf 7e 2c bd c8 61 bc 3d
       -0.20367627 -0.12714578 -0.04211312 0.09198338
0003d0 30 62 27 be 99 41 15 be da da 62 3f bb fb bc 3e
       -0.1634605 -0.14575805 0.8861519 0.36910805
0003e0 fd 84 d6 bd 6e 20 c8 3e ca 79 b6 be 20 0e d0 bd
       -0.10474584 0.39087242 -0.35639793 -0.10158944
0003f0 39 bf a1 bd da ef 6d 3e cb f5 e7 3d 2c be cf 3c
       -0.07897801 0.23236027 0.11326178 0.025359236
